state_dict_task1_model.pt (torch, 10161 bytes, 12 tensors)

conv1.weight f4 [5, 1, 2]
00000000: 4e98 c0be db56 c9be 0236 fa3d 5259 4b3f
00000010: acef 583e ddaf 10bf 60fc fdbe 91f6 5e3f
00000020: af34 83bf 1b1f 133d
-0.376162 -0.39324078 0.122173324 0.79433167 0.21185178 -0.56518346 -0.4960661 0.8709498
-1.0250453 0.035918336

conv1.bias f4 [5]
00000000: 62e3 313f dbad c73e a604 f8bb 92d0 76be
00000010: 6de6 19bf
0.69487584 0.3899983 -0.0075689135 -0.24103001 -0.60117227

fc1.weight f4 [24, 50]
00000000: 076e 2bbd e995 583e 4f0e 163e 6a68 fd3e
00000010: d2f0 b13d d538 033f 4693 43bd fd63 d1be
00000020: bb73 2fbf 75c0 bd3d 035c 9d3d f1fc 58bd
00000030: 3cea 2abe 6a8b a83e 9657 f1be c9f9 9d3c
00000040: 749d aabe ef51 e33e f744 963f 331c 363f
00000050: 358c 70bd fa5b 143e ddfd 873e 7cbf 8bbb
00000060: 7a74 9f3e cb06 6f3c 2ae4 813e 25fa 97bf
00000070: 8f39 503e 2b6b 683f 318c 15be 5762 a03d
00000080: f8ed a33d 5a6e 973e 9926 0bbf 9b24 153f
00000090: 9580 fcbe d645 7d3e 7500 853f 254c a23f
000000a0: b894 90bd 3c3d 223f 6b5b 543e eed8 ec3d
000000b0: 0feb 7fbe b9c1 f53e d1e8 96be b43b 8abd
000000c0: 0d73 53be c569 f93e 9e67 223d ae2d 203f
000000d0: cefe acbe f92f b83d c157 ff3d e1f4 9b3e
000000e0: 5fdc 583e f96f 0ebf 3f04 d0bf fc5b 08bf
000000f0: a577 763e 6301 1fbf def3 93bf 9056 d2be
00000100: c603 a0bf 9919 2abf 2daa 0fbf f5b3 8c3f
00000110: 4637 0a40 1a88 383e a87f f03d 8615 653e
00000120: 6672 debe 98c3 18bf 9917 a63d 7416 12bf
00000130: 5c14 d73e 8f6c eabe f5ce 3fbe 97b9 0f3f
00000140: cddc 023e 1232 b8be 0cdb eabf ce0c 93be
00000150: 1a3e 97bf 4eda d2bf 29bb 0cbf 3f84 f63e
00000160: b0e0 d13f 01c7 babe db46 1f3c e19b f33d
00000170: 7e57 7bbe 62ce 51be a640 1bbd cbc9 50bf
00000180: b21c 3f3e 6888 eebd f666 3dbe bfd7 27bf
00000190: cdd1 fabc fae5 243f 017f 91be efbb 92be
000001a0: 24da 883e a846 f93e 4203 1fbe 37f3 eebd
000001b0: 10ec 13bd a909 34be 1ddf 883c 1f14 f63c
000001c0: a5fc c6bd f751 73bf f529 6abf 9882 a1bf
000001d0: 5042 69be cd10 0ebf 3cd1 4cbb 7e15 fc3d
000001e0: 5250 6ebd 1468 abbc 82ad 24be dccc 093e
000001f0: 611d 21be ebff d63e ce89 14bf af4c 54be
00000200: 6409 49bf f5ae c7bd b34d 793e 3edb 05be
00000210: e8a4 debd 09ca 30bf 32d7 edbe f1bc 84bf
00000220: db6f e0be 63e0 8abf 625b 5ebf a602 5bbf
00000230: 0188 f83b a6fe 27bf e8b7 c0be addd 233c
00000240: a3f6 d83e 2025 793e d7a4 87be f8f5 8bbe
00000250: 62f0 2abf 9586 89bf 0443 9d3c 01a8 593f
00000260: 31d1 27bf a35f 193e 9919 fc3d fbba 063f
00000270: f2dc dbbd e2f0 bfbe f139 7fbf 0016 8d3e
00000280: 0a34 afbc 21c9 a6bd ecd1 05bf 15ac 1abf
00000290: 8944 32bf a353 22bf 812f 8abe cbcd 243f
000002a0: a8c8 bf3f 643c 6d3e 69bb a93d d169 30bc
000002b0: 4cea 75be 6102 d1bd d9b6 4d3c c403 833e
000002c0: 89b3 cdbd c4cb 23bf 05a4 aebd 0356 733f
000002d0: 6a0c 023e 171d 12be 002b 59bf 7639 c4be
000002e0: 2eee 17bf 4c9c 00bf 5134 7ebf 5be7 6b3e
000002f0: 34fe 843f 1ad5 c2be 0c26 5c3c a2fc 553d
00000300: 8473 2fbe f3f7 30be 7ff8 07be e5aa 563e
00000310: 6881 fcbe 8a6d 36be 57e9 c6be 70f3 02bf
00000320: 7d12 dfbd 04a8 8abe 9d2c 093d b8cc 203e
00000330: f959 e23d aaaf 9b3e 8780 0ebe 31b5 23be
00000340: 4a7e c7be 8fd6 983c b155 bc3d 1f1a cb3d
00000350: 6f1e d7bd e6d6 c03e 1ca5 523b ef77 963e
00000360: 3054 e7bd 29c2 833d 9839 ea3e d0a3 e33e
00000370: f15f d63c feac 72bd fda0 e83d 9723 88bd
00000380: 1256 783e 76f7 773c 1499 5b3e e577 babe
00000390: 94ac 993d 1d65 293f db9f 1abe bfbb 363e
000003a0: 54fd 0abd f12f 813e ff40 54be d1e9 283f
000003b0: c387 88be fa65 b93e 6344 283f ee1b a73f
000003c0: 0056 9bbd 6b29 ca3e c67c 403e 5fc7 c1bd
000003d0: 7566 3cbe aafb ba3e cde8 06be 8dd5 463e
000003e0: 5aa3 67be 71c0 803f a7b3 2bbd 8347 233f
000003f0: 1417 a3be 9019 c03e 3721 ab3e 9f5a 013f
-0.041852977 0.21150936 0.14653896 0.49493724 0.08688511 0.51258594 -0.047747873 -0.40896598
-0.68535966 0.09265224 0.076835655 -0.0529756 -0.16690916 0.32918864 -0.47137135 0.019284146
-0.33323252 0.44398448 1.1739796 0.7113678 -0.05872746 0.14488211 0.2656087 -0.00426477
0.31143552 0.014589022 0.25369388 -1.1873213 0.20334457 0.90788525 -0.1460426 0.07831257
0.08004373 0.2957638 -0.5435577 0.5825898 -0.4931685 0.24733672 1.0390764 1.2679487
-0.07059616 0.63374686 0.20737998 0.115648136 -0.24992011 0.4799936 -0.294745 -0.06749669
-0.20649357 0.48713508 0.0396496 0.625697 -0.3378815 0.08993525 0.124679096 0.30460265
0.21177815 -0.55639607 -1.6251296 -0.53265357 0.24069078 -0.6211149 -1.1558797 -0.41081667
-1.2501152 -0.6644531 -0.5611904 1.0992419 2.1596236 0.18020669 0.117430985 0.22371492
-0.43446654 -0.5967345 0.0810997 -0.5706551 0.4200772 -0.4578595 -0.18731292 0.5614256
0.12779541 -0.359757 -1.8348098 -0.28720707 -1.1815827 -1.6472871 -0.54973084 0.4814777
1.6396694 -0.36479953 0.009721483 0.11894966 -0.24545094 -0.20488885 -0.03790345 -0.8155791
0.1866329 -0.11647111 -0.18496308 -0.6556358 -0.030617619 0.64413416 -0.2841721 -0.28659007
0.26728928 0.4868672 -0.15528587 -0.11667483 -0.0361138 -0.1758181 0.016707951 0.030038891
-0.09716157 -0.95046943 -0.9147027 -1.2617979 -0.22779202 -0.55494386 -0.0031252643 0.12308787
-0.05818207 -0.020923652 -0.16081813 0.13457054 -0.15733863 0.41992125 -0.58022773 -0.20732377
-0.78529954 -0.09750167 0.24346046 -0.13071916 -0.10871297 -0.6905828 -0.46453243 -1.037016
-0.4383534 -1.0849727 -0.8685819 -0.85550916 0.0075845723 -0.6562294 -0.3764031 0.010001582
0.4237567 0.24330568 -0.2649295 -0.27336097 -0.66773045 -1.0744196 0.019196995 0.8502198
-0.65553576 0.14977889 0.1230957 0.5262906 -0.10735501 -0.37488467 -0.99697787 0.27555847
-0.021387119 -0.08143831 -0.5227344 -0.60418826 -0.69635826 -0.6340887 -0.26989368 0.64376515
1.498311 0.23167568 0.08287699 -0.010767416 -0.24015158 -0.10205532 0.012555801 0.2558881
-0.10044009 -0.63982797 -0.08527378 0.9505312 0.12700048 -0.1426891 -0.8483124 -0.3832509
-0.5934781 -0.5023849 -0.9929858 0.23037474 1.0390077 -0.3805321 0.013436805 0.052242883
-0.1713391 -0.17282085 -0.13278387 0.20963629 -0.4931748 -0.17815223 -0.388499 -0.51152706
-0.10892198 -0.2708131 0.033489812 0.15703094 0.11052317 0.3040746 -0.13916217 -0.15987088
-0.38963538 0.018656997 0.09196032 0.099170916 -0.105038516 0.37663954 0.003214187 0.29388377
-0.11295354 0.064335175 0.45747066 0.44460917 0.026168795 -0.05924701 0.11358831 -0.06647413
0.24251583 0.015134683 0.21445113 -0.36419597 0.0750362 0.6616991 -0.15100043 0.17845057
-0.033933 0.2523189 -0.20727919 0.65981776 -0.26666078 0.36210614 0.6572935 1.3055398
-0.075847626 0.39484724 0.18797597 -0.09461855 -0.1839846 0.3652013 -0.13174744 0.194174
-0.22620907 1.0058728 -0.041919377 0.63780993 -0.31853545 0.37519503 0.33423778 0.505289

fc1.bias f4 [24]
00000000: cad9 74bd 34d0 ebbe a32e 5bbd 89f6 35be
00000010: 4e89 55be 8e5d 063c 4466 87bd e382 72be
00000020: 0c99 113d e217 24be 6e1d ac3d fb70 3dbd
00000030: 5cd1 603e 216a 47be 2c48 753d dd19 c73e
00000040: eede 7bbc 7ca8 6f3e 7c77 00be d50e 29be
00000050: bbc4 a33d 33aa 30be a804 98bd 1071 043e
-0.059778012 -0.46057284 -0.053511273 -0.17769827 -0.20853159 0.008201016 -0.066113025 -0.23682742
0.035546347 -0.16024736 0.08404051 -0.046250325 0.21954864 -0.19474079 0.05988328 0.3888692
-0.015372975 0.23404115 -0.1254558 -0.16509564 0.07996508 -0.17252426 -0.07422763 0.12933755

fc2.weight f4 [8, 24]
00000000: 7bfa 5f3d 6566 44bd a8d2 91be d9da ffbd
00000010: b7b8 843d 9685 c1be f10e 24bd 36cf 6dbd
00000020: 5b9a 2dbd e3e6 3d3d 2640 3dbe a1a5 a1be
00000030: 4288 b23d 701e 8ebd 19c5 8abe 8743 c0be
00000040: ce08 65be 188b 77be 2203 233d fc7d 28be
00000050: dd1b 45be 9bc1 003e f3d5 6f3e 55ef 583c
00000060: ce4c 64be 7b74 f8be e74e 1b3d 8d23 0fbe
00000070: b3e2 62be fc6b ecbc 32b8 e53e 4268 dabe
00000080: c043 c5be 8a4f 52be a33e 03be 024a d83c
00000090: 2a3b 0a3e 6fcf 03bf 47ae 28bd 666c 1bbe
000000a0: a629 803d 87c7 133e feae 5dbe 1529 6ebd
000000b0: a7c1 4dbd 7fcc 1ebe 92bf 6a3e f6aa 923d
000000c0: 51ec 11be 7657 b4be 9dd2 a1bc 8479 d1be
000000d0: 331e 2bbd fd0c 61bd 28be 8f3e 0afa d4be
000000e0: d8b5 f7bd 9f43 83be edc1 a2be 5331 f03b
000000f0: baa4 1c3e f79c bcbe 13e9 3abb f287 02be
00000100: 9d90 ab39 00d9 a03d 792d 1b3e e5ed b6bb
00000110: b617 95bd 7e70 a139 9e61 2a3f 364d 793e
00000120: 5646 d2bb c163 a9bd c90f 83be dd5e 9ebe
00000130: 1a24 013e b32b 77be b810 cbbd 0863 b2bd
00000140: 77fa e83c a76c ed3c f331 7bbe ed4f 38be
00000150: bc54 abbd 8179 61bd b66b 33be 891e 61be
00000160: d879 88be 30c4 a0be 67dc 163e 0ecf e2bd
00000170: 05f7 02be a738 c03d 13eb 2ebd 9379 aebd
00000180: 2911 00bd c496 0cbe dfa4 a3be feda f8bd
00000190: cf1c ca3d d6a5 7bbe 91ae 4ebd e80c 25be
000001a0: fd82 903b 85ae 2dbd e316 58be cd13 4bbe
000001b0: 8670 233d 57f3 00be 3fe3 61be e803 b3be
000001c0: 6410 cdbc c694 77be 91de a73d 6226 24be
000001d0: d87f 97be 720e 593e 1b31 943d dd8e 4cbd
000001e0: 21e7 dc3d 0c31 07be 7a9a 48be c8f0 8bbe
000001f0: 8f7c 343e d094 85be ae7c 3ebe 82a3 b2bd
00000200: f91e 333d 99ad 0b3e 7e4c 2dbe 6ac4 7fbe
00000210: ec40 a03d 7e96 8abd cab0 6cbe 4ae0 a2be
00000220: c780 a9be f9e1 47be cf11 ea3c 2c38 10be
00000230: 4165 23be bc39 3cbc a1ce 063d 7181 61bd
00000240: 9173 cdbb e834 89bd b667 b0be 0d08 cabd
00000250: ca10 b03d e69c 8abe 7f5d 94be 8d22 03bd
00000260: de5b e2bc ffd2 033d 4c54 63be 5bbf 78be
00000270: 0a2b 50be 24a9 bcbd 7515 97be 21b7 61be
00000280: 6e6a c1be eae9 69be 74c8 8a3d 2e81 50be
00000290: da1d 23be 65a2 e23d 8ed8 2a3e eb49 74be
000002a0: 7d75 3d3f 8f06 8c3e ea3d 4bbd 7097 da3e
000002b0: 1c4d a93e bd8f 8e3d 1508 1dbf 29ef e53e
000002c0: 256e b83e 0a36 3a3f 1225 803e 5f29 5f3d
000002d0: 69d1 e1be 7084 933e f8cf 4bbe fdf0 bc3d
000002e0: 3cec 38bf 95cc c1bd 0c3d 87be e8ba 16be
000002f0: acb4 59bd d0ba c83e 11b2 d9be ec38 3bbf
0.054682236 -0.047949214 -0.2848103 -0.12492914 0.06480544 -0.3779723 -0.04005331 -0.05805894
-0.042383533 0.04636277 -0.18481502 -0.31571677 0.08717395 -0.06939399 -0.271035 -0.3755152
-0.2236664 -0.24174154 0.03979791 -0.16454309 -0.1924891 0.12573855 0.23421459 0.013240655
-0.22294924 -0.48526368 0.037917044 -0.13978405 -0.22156791 -0.028860085 0.44867092 -0.42657667
-0.38528252 -0.20538154 -0.12816863 0.026402477 0.13499132 -0.51488394 -0.04118183 -0.1517807
0.06257944 0.14431582 -0.21648785 -0.058144648 -0.05023351 -0.15507697 0.22924641 0.071615145
-0.14250304 -0.35222977 -0.019753749 -0.40913022 -0.041776847 -0.054944027 0.28074765 -0.41597015
-0.12095231 -0.25637528 -0.3178858 0.0073300987 0.15297213 -0.36838505 -0.002852027 -0.12747172
0.00032723407 0.078538895 0.15154065 -0.0055825585 -0.07279913 0.00030792126 0.665552 0.2434586
-0.006417076 -0.0827098 -0.2559798 -0.3093175 0.12611428 -0.24137764 -0.09915298 -0.08710295
0.028439743 0.028982474 -0.24530773 -0.1799924 -0.08365771 -0.055047516 -0.17521557 -0.21984304
-0.2665546 -0.3139968 0.14732514 -0.11074649 -0.12789543 0.093858056 -0.042704653 -0.08519282
-0.031266365 -0.13729388 -0.31961724 -0.121511444 0.09868776 -0.2457498 -0.05045945 -0.16118205
0.0044101463 -0.042402763 -0.2110248 -0.19831772 0.039902233 -0.12592827 -0.22059344 -0.34963918
-0.02503223 -0.24177846 0.08196748 -0.16030267 -0.29589725 0.21196917 0.072359286 -0.049940933
0.10786272 -0.13202304 -0.19590178 -0.2733214 0.1762564 -0.26090097 -0.18602249 -0.08722593
0.04373071 0.13640441 -0.1692371 -0.2497727 0.07824883 -0.06766985 -0.23114315 -0.31811744
-0.33106062 -0.19519795 0.028572945 -0.14083928 -0.15956594 -0.011488374 0.0329119 -0.055055086
-0.00626988 -0.06699544 -0.34454125 -0.09864817 0.08596952 -0.2707283 -0.28977582 -0.032015372
-0.027631696 0.032183643 -0.22200125 -0.24291746 -0.20328918 -0.092119485 -0.29508558 -0.22042514
-0.37776512 -0.22843137 0.06776515 -0.20361778 -0.15929356 0.110661305 0.16684172 -0.23856322
0.740074 0.27348754 -0.049619593 0.42693663 0.33066642 0.0696101 -0.6134046 0.44909027
0.36021534 0.7273871 0.25028282 0.054482814 -0.4410508 0.2881198 -0.19903553 0.09225652
-0.72235465 -0.09462849 -0.26413763 -0.14719737 -0.053150818 0.39205027 -0.42518666 -0.7313373

fc2.bias f4 [8]
00000000: 7da8 03bf bd80 adbd cda3 7c3e 4b03 d6be
00000010: 733e a8be c998 e5be e9b9 11bf 9443 223e
-0.5142897 -0.084718205 0.2467186 -0.41799387 -0.32860145 -0.44843128 -0.569243 0.15846092

fc3.weight f4 [3, 8]
00000000: 15f6 d7be 9e31 a9be abb4 dabe 86fc 65be
00000010: 9c01 d2be 156c a9be 6c72 01be 7806 aa3e
00000020: 5e34 b5be 2f0f 8e3e b11a 7e3e 7954 65bd
00000030: 6621 4dbe 7238 85be d5ba 82be 9a72 afbe
00000040: 323f d13e b8a2 01bb 3d6f 913e d3bb 213f
00000050: 16ac c93e 1112 083f 4d8e 3a3f 8f40 873e
-0.42179933 -0.33045667 -0.42715964 -0.22459611 -0.41016853 -0.33090273 -0.12641305 0.3320806
-0.35391515 0.2774596 0.2481487 -0.055988763 -0.20032272 -0.26019627 -0.25533167 -0.34267122
0.40868527 -0.0019780826 0.2840518 0.6317722 0.39389104 0.5315257 0.72873384 0.26416442

fc3.bias f4 [3]
00000000: 92c8 f83d 74b5 b53e cb39 04bf
0.12147631 0.3549 -0.51650685

conv1_bn.weight f4 [5]
00000000: 0b49 b03f d2dc f73f 99b5 ac3f 9e56 e43f
00000010: 33e3 b93f
1.3772291 1.9364264 1.3492919 1.7838933 1.4522461

conv1_bn.bias f4 [5]
00000000: 7f2c 823e 018c e5bd b6f1 0abe 92f1 dfbd
00000010: 1b78 66bd
0.25424573 -0.11208344 -0.13568768 -0.10934748 -0.056266885

conv1_bn.running_mean f4 [5]
00000000: 86f6 d93f 04f2 4fbf 2904 e73e f329 3cbf
00000010: 9321 323f
1.7028358 -0.8122866 0.4512036 -0.7350151 0.6958248

conv1_bn.running_var f4 [5]
00000000: dafe cf43 99d5 8944 35ca 4244 772b 0c45
00000010: 302f f644
415.99103 1102.6749 779.1595 2242.7166 1969.4746
