state_dict_task2_model.pt (torch, 141943 bytes, 18 tensors)

conv1.weight f4 [6, 1, 5, 5]
0	0xbd6882c0	-0.056765318
1	0x3c425f23	0.011863503
2	0x3e08ec6d	0.1337144
3	0x3d5b7d98	0.053586572
4	0xbdf77764	-0.12083319
5	0x3e5ba396	0.21449122
6	0x3db24051	0.08703674
7	0xbdd2a90d	-0.1028615
8	0x3d4655b7	0.048421588
9	0x3d463cf9	0.04839799
10	0x3d7d1fcd	0.061797906
11	0xbdfa7271	-0.12228859
12	0xbcaf29f9	-0.021382319
13	0x3e2b6f48	0.16741669
14	0x3df4abbf	0.119468205
15	0xbe0e685d	-0.13906999
16	0x3dc51a73	0.096241854
17	0xbe4582cf	-0.19288181
18	0xbe862148	-0.26197267
19	0xbcaf4402	-0.021394733
20	0xbebe47f5	-0.37164274
21	0xbec50e67	-0.3848755
22	0xbef6794a	-0.4813941
23	0xbebe3323	-0.3714839
24	0xbe8a4f50	-0.27013636
25	0xbd1bd75d	-0.038047183
26	0x3d3597a8	0.044334084
27	0xbd2f88d2	-0.04285509
28	0x3e085106	0.13312158
29	0xb97bf8f5	-0.00024029969
30	0x3e2bc66a	0.16774908
31	0x3dce2b77	0.10066884
32	0x3d21e619	0.03952608
33	0x3d575a79	0.052576516
34	0xbe9676e9	-0.29387596
35	0x3cb3b379	0.021936165
36	0x3e743a1b	0.2385029
37	0x3d01435a	0.031558372
38	0x3eb58ee4	0.3546058
39	0xbdcf11ff	-0.10110854
40	0xbee71ac6	-0.45137614
41	0xbc8cdf00	-0.017196178
42	0xbebee981	-0.37287524
43	0xbea86476	-0.32889146
44	0xbb6e72c2	-0.003638432
45	0xbeb0161d	-0.3439187
46	0xbda26ccc	-0.079309076
47	0xbb29d3a4	-0.00259135
48	0x3de4a8fc	0.11165044
49	0x3ece2582	0.4026299
50	0xbd9139de	-0.070911154
51	0x3e999a0a	0.30000335
52	0xbe41dc76	-0.18931755
53	0xbd0f358a	-0.03496317
54	0xbc127ad8	-0.008940421
55	0xbcbcee9c	-0.023062997
56	0x3adb9ca0	0.0016755052
57	0xbdb6eec6	-0.08932261
58	0x3e1e5893	0.15463476
59	0x3ae8852f	0.0017739887
60	0x3e59fa1a	0.21286812
61	0xbd2b0fdb	-0.041763168
62	0xbd0bbbad	-0.03411453
63	0x3e6bc97d	0.2302608
64	0x3cc0bad6	0.02352659
65	0xbe0b0530	-0.13576198
66	0x3d819623	0.063274644
67	0xbd93adc4	-0.072108775
68	0xbea7bc86	-0.3276102
69	0xbdaa47d0	-0.083144784
70	0x3cfa9839	0.030590164
71	0xbe25e0e5	-0.16199072
72	0x3d6fc74a	0.058539666
73	0xbe980fa5	-0.29699436
74	0xbe430351	-0.19044234
75	0xbccdd0bf	-0.025123952
76	0x3d9ad2cd	0.07559738
77	0xbe50e193	-0.2039855
78	0xbc8178fb	-0.015804758
79	0x3d0496ed	0.032370497
80	0x3de99e4c	0.11407146
81	0xbdfb5a47	-0.122730784
82	0x3e7645bd	0.2405004
83	0xbe947dfc	-0.29002368
84	0x3de7acf0	0.11312282
85	0xbeb5df2e	-0.35521835
86	0x3caf9427	0.02143295
87	0xbe72d192	-0.23712757
88	0xbe94812f	-0.2900481
89	0x3e41b980	0.18918419
90	0x3c0865bc	0.008325037
91	0x3e47a639	0.19497003
92	0xbcca3e2e	-0.024687853
93	0xbdc51c7b	-0.09624573
94	0x3e68caf2	0.22733667
95	0x3db49cb4	0.08818951
96	0x3e619d6b	0.22032706
97	0x3e58f860	0.21188498
98	0x3e56c56f	0.20973752
99	0x3ebc4646	0.36772364
100	0x3e8ec23d	0.27882567
101	0xbc3db604	-0.01157904
102	0xbe6779d4	-0.22605067
103	0xbc2cc2f4	-0.010544527
104	0x3dcc8c50	0.099877
105	0xbc43d5b7	-0.011952809
106	0xbea1a87f	-0.31573865
107	0xbe8e070f	-0.2773976
108	0x3e1e5b9e	0.15464637
109	0x3ee30924	0.4434291
110	0x3e0a1e3c	0.13488096
111	0x3d3ccf1d	0.046095956
112	0xbbd6875c	-0.006546898
113	0xbe550dcb	-0.20806043
114	0xbda0b87d	-0.07847688
115	0x3e56053e	0.20900437
116	0x3ec5b9d6	0.38618344
117	0x3db7f463	0.0898216
118	0xbc53bcfc	-0.012923475
119	0xbe1f9221	-0.15583088
120	0xbcff08de	-0.031132158
121	0xbc560783	-0.013063314
122	0xbddf74e3	-0.10910966
123	0x3c5dff7c	0.013549682
124	0xbe04bf74	-0.12963659
125	0x3e0bad65	0.13640364
126	0x3e0d08f3	0.13772945
127	0xbc2e4f96	-0.010639092
128	0x3d549718	0.051901907
129	0x3e45dfea	0.19323698
130	0xbda61f18	-0.081113994
131	0x3d619acf	0.055079278
132	0xbc2ff199	-0.010738754
133	0xbe463c92	-0.19359043
134	0xbd0cd0bd	-0.034378756
135	0x3d51fbd2	0.051265545
136	0x3c67414a	0.014114687
137	0xbd42e479	-0.04758117
138	0xbda2b088	-0.07943827
139	0x3c13e3ba	0.009026462
140	0xbd691448	-0.056904107
141	0x3ed59ba5	0.4172031
142	0x3e1e6801	0.15469362
143	0x3e1c758e	0.15279219
144	0x3db11bf9	0.086479135
145	0x3d99e102	0.0751362
146	0x3f062fe6	0.5241684
147	0x3ea6033e	0.3242435
148	0x3f01c261	0.50687224
149	0x3e96e6aa	0.29472858

conv1.bias f4 [6]
0	0x3dd892c2	0.10574867
1	0xbce02007	-0.027359022
2	0xbe9c561f	-0.30534455
3	0xbe8dd089	-0.27698162
4	0x3e57ad21	0.21062137
5	0x3c9435b2	0.01809201

conv2.weight f4 [10, 6, 2, 2]
0	0x3cb015e0	0.021494806
1	0x3eed8e42	0.46397597
2	0xbe305593	-0.17220144
3	0x3c3d7863	0.011564347
4	0xbd18f2db	-0.03734098
5	0x3e161fdf	0.14660595
6	0xbdfe8b39	-0.12428898
7	0xbd305615	-0.043050844
8	0x3e754c69	0.2395493
9	0xbe5c14fb	-0.21492378
10	0x3e5e000d	0.21679707
11	0xbd5b40bd	-0.053528536
12	0xbddfca7e	-0.10927294
13	0xbd11ce55	-0.035597164
14	0x3e0b8d34	0.13628083
15	0xbcd40b23	-0.025884217
16	0xbea055b7	-0.31315395
17	0x3e5fe502	0.21864703
18	0x3d4cbbd6	0.04998382
19	0x3eb197a6	0.3468601
20	0xbca3d014	-0.01999668
21	0x3db71d1e	0.089411005
22	0xbe4e40d6	-0.2014192
23	0xbe09578a	-0.134123
24	0xbecfa12f	-0.4055266
25	0xbe1ea4dc	-0.15492576
26	0x3de9e6dd	0.11420987
27	0xbde80779	-0.1132955
28	0xbe9eee50	-0.31041193
29	0x3e2aa600	0.16664886
30	0x39cc7d8d	0.00039003455
31	0x3a50fdaf	0.0007972372
32	0x3e872e39	0.26402453
33	0xbda45ac6	-0.08025126
34	0xbc535755	-0.01289924
35	0x3e06b9b4	0.13156778
36	0x3d837706	0.06419186
37	0x3d042a22	0.032266743
38	0x3e994e28	0.2994244
39	0xbe288332	-0.16456297
40	0x3e72e380	0.23719597
41	0xbe105daa	-0.1409823
42	0xbe4918a3	-0.19638304
43	0xbe0a7c87	-0.13524066
44	0x3dc80c43	0.09767964
45	0xbdd7992c	-0.10527262
46	0x3cf085d8	0.029360697
47	0x3cc82c00	0.024435043
48	0xbebddf71	-0.37084535
49	0xbf068844	-0.52551675
50	0x3e7e6203	0.24842076
51	0xbdc3cf8e	-0.09561072
52	0xbdd53616	-0.10410707
53	0x3e15f22e	0.14643165
54	0xbd2e98af	-0.04262608
55	0xbdd49a26	-0.10380964
56	0xbe229c0e	-0.15879843
57	0xbcdd3791	-0.027004035
58	0xbd8f36cd	-0.06992874
59	0x3d61f26f	0.055162843
60	0x3c1dcfb1	0.009632037
61	0xbd84e40c	-0.06488809
62	0x3e9fc401	0.31204227
63	0xbe56bfa4	-0.20971543
64	0x3e0a3644	0.13497263
65	0xbcf73789	-0.030177848
66	0xbc37f230	-0.011227176
67	0x3d1b10f8	0.03785798
68	0x3e485e92	0.19567326
69	0xbe39fa85	-0.18161972
70	0xbe27700f	-0.1635134
71	0x3e0efe95	0.13964303
72	0x3b302a88	0.002688082
73	0x3e26af7f	0.16277884
74	0x3e1c2c9c	0.15251392
75	0x3ce7da1e	0.028302249
76	0xbd2a33c9	-0.041553292
77	0x3c4935d7	0.012280903
78	0x3d42729e	0.04747259
79	0x3e2b9c5d	0.16758867
80	0xbea3eee8	-0.32018209
81	0xbdb9765b	-0.09055778
82	0xbd56f8aa	-0.05248324
83	0x3e71418f	0.23560165
84	0xbe52086b	-0.20511024
85	0x3e2f9834	0.17147905
86	0xbea8db32	-0.32979733
87	0xbe832cd9	-0.25620154
88	0x3ce20f65	0.027595231
89	0xbd67f426	-0.056629322
90	0x3c1d48de	0.009599892
91	0xbe382577	-0.17983042
92	0x3e49aee1	0.19695617
93	0x3dded3e6	0.1088026
94	0xbe87934f	-0.26479575
95	0x3dc08162	0.09399678
96	0xbe30c08a	-0.17260948
97	0x3e978902	0.29596716
98	0x3d569a13	0.05239303
99	0xbdd89700	-0.10575676
100	0xbe3a3763	-0.18185191
101	0x3e62e786	0.22158632
102	0x3dc22253	0.09479203
103	0x3e2ac050	0.16674924
104	0x3d9e5478	0.07730955
105	0x3eab4b09	0.33455685
106	0xbc74e6bf	-0.014947592
107	0xbe721033	-0.23638992
108	0xbea7fc19	-0.32809523
109	0xbc8bdc88	-0.017072931
110	0x3e45de44	0.19323069
111	0xbe24540a	-0.16047683
112	0x3e46f55c	0.19429535
113	0xbde1c9d6	-0.11024825
114	0xbd9b65b4	-0.07587758
115	0xbe3cff73	-0.18456821
116	0xbe1ae1fe	-0.15125272
117	0xbd5903a8	-0.052982002
118	0xbe379705	-0.17928703
119	0xbc03718e	-0.008022679
120	0x3c927518	0.0178781
121	0x3d30a003	0.04312135
122	0x3d65fddf	0.056150313
123	0xbdbf1b06	-0.09331326
124	0x3e1a671e	0.15078399
125	0xbdf1546a	-0.11783679
126	0x3eb09cbd	0.34494582
127	0xbd72d6c7	-0.05928686
128	0xbd2c17e6	-0.04201498
129	0x3c9a8cd5	0.018865982
130	0x3e399fde	0.1812739
131	0x3e01048f	0.12599395
132	0xbe266c58	-0.16252267
133	0x3d4b6489	0.049656425
134	0xbc0c7ba9	-0.008574405
135	0xbcd9ade3	-0.026572173
136	0xbdb94de6	-0.09048061
137	0xbe2d59ed	-0.16928835
138	0xbed33dd7	-0.41258118
139	0xbe9ba6e7	-0.30400774
140	0x3e3ac5fb	0.18239586
141	0x3c2958db	0.010336126
142	0x3cede5cb	0.029040238
143	0xbd13fb66	-0.036128424
144	0x3ea20d4d	0.31650773
145	0x3e4d1e5b	0.20031111
146	0x3ddc3dba	0.10753961
147	0xbe307773	-0.17233066
148	0x3e80c978	0.25153708
149	0x3d69e232	0.057100482
150	0x3dd050a9	0.10171635
151	0xbcbdeabf	-0.023183225
152	0x3d6af093	0.057358336
153	0xbe0e1741	-0.13876058
154	0xbe8025d9	-0.25028875
155	0xbe0c755d	-0.13716646
156	0xbd52dfa0	-0.051482797
157	0xbda1f72f	-0.07908475
158	0x3e273bb9	0.16331376
159	0x3e54f7a5	0.20797594
160	0xbe5fd445	-0.21858318
161	0xbdf0e30a	-0.11762054
162	0xbe4d72d1	-0.2006333
163	0xbe9da6b3	-0.30791244
164	0x3dec2598	0.11530608
165	0xbd247542	-0.04015089
166	0xbe3c2f68	-0.18377459
167	0x3e1e8a50	0.1548245
168	0x3d5a21cd	0.05325489
169	0x3da18026	0.078857705
170	0xbea7761f	-0.32707307
171	0xbe939932	-0.28827816
172	0xbd13bc99	-0.036068533
173	0x3e95e1a1	0.29273704
174	0x3d40a3ba	0.04703114
175	0xbe519c39	-0.2046975
176	0x3eb84c7b	0.3599585
177	0xbded485c	-0.11586067
178	0xbe9e482d	-0.3091444
179	0xbe0d9d51	-0.13829543
180	0xbda5be58	-0.08092946
181	0xbdcd1a20	-0.100147486
182	0xbe3e289e	-0.18570182
183	0x3e5c8d00	0.21538162
184	0xbd19b62b	-0.037527245
185	0xbe56bab8	-0.20969665
186	0x3e0271fa	0.12738791
187	0xbdc00717	-0.09376352
188	0x3cba3bf6	0.02273367
189	0xbda20f83	-0.07913115
190	0x3dec201c	0.11529562
191	0x3cbfbd60	0.02340573
192	0x3c9a8aac	0.018864952
193	0xbd226daa	-0.039655365
194	0x3e2929e5	0.16519888
195	0x3e77e154	0.2420705
196	0x3dd6b6b4	0.104840666
197	0x3d61737a	0.055041768
198	0xbe97d984	-0.2965814
199	0x3e044569	0.12917103
200	0x3cdc53ce	0.02689543
201	0xbea30ae5	-0.3184425
202	0xbe3e8f94	-0.18609458
203	0x3d3ff5cd	0.046865273
204	0xbe8030af	-0.25037143
205	0x3d9f5eeb	0.07781776
206	0xbd9de181	-0.07709027
207	0x3e842859	0.25812033
208	0x3dcc386b	0.099716984
209	0xbd65e75e	-0.056128852
210	0x3e3f1dcb	0.18663709
211	0xbe55d6d4	-0.20882732
212	0xbe32c81f	-0.17459153
213	0x3d98b8ea	0.074571446
214	0xbcc70565	-0.024294565
215	0xbe02b114	-0.12762862
216	0x3e1434db	0.14473288
217	0x3def7c74	0.116936594
218	0x3e848bad	0.25887814
219	0xbcbeade3	-0.023276275
220	0x3e74d7a4	0.23910385
221	0xbe34043f	-0.17579745
222	0xbe2d526a	-0.1692597
223	0x3e15b472	0.14619616
224	0x3e1b6674	0.15175802
225	0xbe5248e8	-0.20535624
226	0xbe7620ea	-0.24035993
227	0x3e1021cb	0.14075391
228	0xbe30d04e	-0.17266962
229	0xbccb81e2	-0.024842206
230	0x3ec2772f	0.37981555
231	0xbe5b8267	-0.21436463
232	0x3d900130	0.070314765
233	0x3dd2717b	0.10275551
234	0x3deb158e	0.114787206
235	0xbcc40286	-0.023926985
236	0x3df11212	0.11771025
237	0xbd835814	-0.06413284
238	0x3c9cda9b	0.019147208
239	0xbdc2c832	-0.095108405

conv2.bias f4 [10]
0	0x3ceca9db	0.028889587
1	0xbd797063	-0.060898196
2	0x3ecb417e	0.39698404
3	0x3d14fda8	0.036374718
4	0xbded03fe	-0.11573027
5	0x3eacfce1	0.3378668
6	0xbd50919c	-0.050920114
7	0x3dc2eeff	0.09518241
8	0xbdebbd7d	-0.115107514
9	0x3d09e773	0.033667993

fc1.weight f4 [84, 360]
0	0x3bd22592	0.00641317
1	0xbcfa8281	-0.030579807
2	0xbdaaa04c	-0.083313555
3	0xbdf8f605	-0.121562995
4	0xbd8801fe	-0.06641005
5	0xbd6d0b15	-0.057871897
6	0xbd87a8e2	-0.06624009
7	0xbe41766f	-0.18892835
8	0x3d1e5926	0.038659237
9	0xbd3d5711	-0.04622561
10	0xbd015a30	-0.03158015
11	0x3d9694e8	0.0735262
12	0x3c9b944a	0.018991608
13	0xbb33ef11	-0.0027455727
14	0x3daa85e6	0.0832632
15	0x3c900808	0.017581955
16	0xbdbb4483	-0.09143927
17	0x3ccb935e	0.024850544
18	0xbda89e21	-0.08233286
19	0xbde7c728	-0.11317283
20	0xbddc154e	-0.10746251
21	0xbe3b488a	-0.1828939
22	0x3d554fe1	0.05207813
23	0xbe09be11	-0.13451411
24	0x3cf2fe50	0.029662281
25	0xbe25e2ad	-0.16199751
26	0xbda2dbd4	-0.07952085
27	0xbe856b3e	-0.26058382
28	0xbd98c30f	-0.074590795
29	0xbe52bf5f	-0.20580815
30	0xbb6e1c72	-0.0036332873
31	0xbd8038f3	-0.06260862
32	0x3e2b0e42	0.16704658
33	0xbc7297ca	-0.014806697
34	0x3e74bf67	0.23901139
35	0x3d092e6d	0.03349154
36	0x3d66446a	0.05621759
37	0xbd8e256b	-0.06940731
38	0x3afb0b41	0.0019153134
39	0x3ce9519d	0.028481299
40	0x3c7d6192	0.015465157
41	0xbd21d1fa	-0.03950689
42	0x3ca5c741	0.020236613
43	0xbd297742	-0.0413735
44	0x3d53b0a4	0.05168213
45	0xbd7691fc	-0.060197815
46	0x3dd49384	0.10379699
47	0x3d0f2b9d	0.034953702
48	0x3db9a765	0.09065131
49	0xbd384e1c	-0.044996366
50	0xbd6be68d	-0.057592917
51	0x3d9df560	0.07712817
52	0xbd3c8cc6	-0.04603269
53	0x3c1850a4	0.00929657
54	0x3df7cd8d	0.120997526
55	0xbcb46759	-0.022021936
56	0x3e19584b	0.14975087
57	0x3e4e457a	0.2014369
58	0x3e124644	0.14284617
59	0xbc974ca7	-0.018469168
60	0x3d1b0527	0.03784671
61	0xbd53cafc	-0.051707253
62	0x3df3cf20	0.1190474
63	0x3da0dd4c	0.07854709
64	0x3d4dd0c4	0.050247923
65	0x3d85ef28	0.06539756
66	0xbd8571ce	-0.06515847
67	0xbd405055	-0.04695161
68	0xbd6e2c0c	-0.058147475
69	0xbe137271	-0.14399125
70	0xbdb46809	-0.08808906
71	0xbe762411	-0.24037196
72	0x3d98ddee	0.07464205
73	0xbe06687b	-0.13125794
74	0xbd4799f2	-0.048730798
75	0x3e179d60	0.14806128
76	0xbd4cbca8	-0.049984604
77	0xbbdf67e2	-0.0068178037
78	0x3e0603c9	0.13087381
79	0xbdc34f11	-0.09536565
80	0xbda00c3c	-0.078148335
81	0xbd8e553a	-0.069498494
82	0xbda35333	-0.07974853
83	0xbd1ada6a	-0.037805952
84	0x3dc46897	0.095902614
85	0xbc66c21e	-0.014084367
86	0xbd1aed8e	-0.037824206
87	0xbb480651	-0.0030521343
88	0xbdb884ec	-0.09009728
89	0xbde2b1be	-0.11069058
90	0x3e4d76d9	0.20064868
91	0x3e532264	0.20618588
92	0x3e7b5168	0.24542773
93	0x3ea52ecf	0.32262275
94	0x3e14450e	0.14479467
95	0x3df4e970	0.11958587
96	0x3cb0f698	0.02160196
97	0x3d57d392	0.052692004
98	0x3c746b5e	0.014918176
99	0x3cf06f1d	0.029349858
100	0xbd18782b	-0.037223976
101	0x3e7fe783	0.24990658
102	0xbd8d5217	-0.06900423
103	0xb9376ca2	-0.00017492709
104	0xbe120b51	-0.1426213
105	0xbe0977be	-0.13424584
106	0xbe2c0acc	-0.16800994
107	0xbdab6013	-0.08367934
108	0x3cea6a80	0.028615236
109	0x3dedbac0	0.11607885
110	0xbd32a06d	-0.043610025
111	0x3d4bcd1a	0.049756147
112	0xbd65ba1c	-0.05608569
113	0x3c3d050a	0.011536846
114	0xbcdfafc9	-0.0273055
115	0x3db9f81a	0.09080525
116	0xbdc7b936	-0.09752123
117	0xbda643d9	-0.0811841
118	0xbd63ab25	-0.055583138
119	0xb757fe6f	-1.2874239e-05
120	0xbd39edaa	-0.04539267
121	0x3dc3cf0b	0.09560975
122	0xbda0fe52	-0.07861008
123	0x3d357a42	0.044306047
124	0xbd981b3a	-0.07427068
125	0xbb7dda26	-0.0038734763
126	0xbdbb0aa7	-0.09132891
127	0xbe10e891	-0.14151217
128	0xbe8d8c77	-0.2764623
129	0xbda30109	-0.07959182
130	0xbd5efe77	-0.054441895
131	0x3dc6d6cb	0.09708937
132	0x3d3fb34a	0.046801843
133	0x3dd2c444	0.10291341
134	0x3ddc6273	0.10760965
135	0x3e8ed484	0.27896512
136	0x3dd8c650	0.105847
137	0x3e4ff3ff	0.20307921
138	0xbc6e8554	-0.014558155
139	0x3d8671cb	0.06564673
140	0x3d7870d4	0.060654476
141	0xbc874476	-0.016512137
142	0xbc061b9d	-0.008185294
143	0x3d65a4a9	0.056065235
144	0x3c0dacc5	0.0086471485
145	0xbd2fbc86	-0.0429044
146	0xbd80b3df	-0.06284308
147	0xbd00d2f9	-0.0314512
148	0x3c08a1a2	0.0083393175
149	0xbd2d70de	-0.042343967
150	0xbd3fa9e2	-0.046792872
151	0x3d7866be	0.060644858
152	0xbd675280	-0.056475163
153	0x3cc495a7	0.023997141
154	0xbd58d2c4	-0.052935377
155	0x3d79b92e	0.060967617
156	0xbb79a494	-0.003809248
157	0x3d98c581	0.07459546
158	0x3bc86971	0.006116085
159	0x3a889a9f	0.0010422057
160	0xbdbc7c71	-0.09203423
161	0xbd11202f	-0.035431083
162	0xbde3d1f3	-0.11124029
163	0xbd84532b	-0.064611755
164	0xbde2e2b0	-0.110783935
165	0xbd914314	-0.07092872
166	0xbde0874b	-0.10963305
167	0x3c3f5231	0.011677311
168	0xbd89e6c1	-0.06733466
169	0xbe5a1d52	-0.21300247
170	0xbde14ec5	-0.11001352
171	0xbd81dc06	-0.06340794
172	0xbdd7d408	-0.105384886
173	0x3d803d82	0.06261732
174	0x3cd59878	0.02607368
175	0xbbc17afb	-0.005904553
176	0x3c7f2129	0.015571871
177	0x3e54a153	0.20764665
178	0x3dc5a523	0.09650638
179	0xbd53c389	-0.05170015
180	0x3c839cd8	0.016066
181	0x3c949106	0.018135559
182	0x3d8de71f	0.069288485
183	0xbce6a0a2	-0.028152768
184	0xba328ed9	-0.0006811447
185	0x3c6da840	0.014505446
186	0xbd6af5e5	-0.05736341
187	0x3e09d691	0.13460757
188	0x3d59d247	0.05317905
189	0x3d557df4	0.05212207
190	0x3d94cd56	0.07265727
191	0x3c03e905	0.008051162
192	0xbe01159f	-0.12605904
193	0x3dc70127	0.09717017
194	0xbd6aadf1	-0.05729479
195	0xbcf4829e	-0.02984744
196	0x3cbeb925	0.023281643
197	0x3cad9ee1	0.021193923
198	0xbdae1984	-0.085009605
199	0xbd13b5b6	-0.036061965
200	0xbe78b1f9	-0.24286641
201	0xbe1ef152	-0.15521744
202	0xbe258d2f	-0.16167139
203	0xbe451c80	-0.19249153
204	0xbcf53371	-0.029931756
205	0xbb902fff	-0.004400253
206	0xbe12d4ca	-0.14338985
207	0xbd940360	-0.07227206
208	0x3d0434fe	0.0322771
209	0x3d8ddaa6	0.069264695
210	0xbd8b637e	-0.06806086
211	0xbce24d23	-0.027624672
212	0xbbd0ab96	-0.006368111
213	0xba8c3ee3	-0.0010699894
214	0x3daace2a	0.08340104
215	0x3d4836c1	0.048880342
216	0xbc4a7c13	-0.012358683
217	0xbde66dcd	-0.112514116
218	0xbd745fd3	-0.059661698
219	0xbd17d1b8	-0.037065238
220	0x3cf129dc	0.029438905
221	0xbcab440a	-0.020906467
222	0xbb4b6af4	-0.003103909
223	0xbaa0e612	-0.0012275598
224	0x3dcd7372	0.10031785
225	0x3d709208	0.058733016
226	0x3dde7a9a	0.10863228
227	0xbd5e56e8	-0.0542821
228	0x3d7bf604	0.061513916
229	0xbd2db70c	-0.042410895
230	0x3d73613d	0.059418906
231	0x3db8e621	0.090282686
232	0x3d83b42a	0.06430848
233	0xbd3ed4c4	-0.046589628
234	0x3e662a45	0.22477062
235	0x3cf2b59a	0.02962761
236	0xbd1934f3	-0.037404012
237	0xbdafbc18	-0.08580798
238	0xbd1655d3	-0.036702942
239	0xbd7d8f36	-0.061904155
240	0xbd1de832	-0.038551517
241	0xbd1fe0ba	-0.039032675
242	0xbe1aa863	-0.15103297
243	0xbe1b5ffd	-0.15173335
244	0xbda697a6	-0.081343934
245	0x3d5ebaee	0.05437749
246	0x3d8f4967	0.06996422
247	0x3db3c3fb	0.08777615
248	0x3d98cdb0	0.07461107
249	0x3dc514b8	0.096230924
250	0x3e09e74b	0.13467138
251	0x3e542ee4	0.20721012
252	0xbda0ef8a	-0.078581885
253	0xbdeb5754	-0.11491266
254	0xbd9e3eec	-0.07726845
255	0xbe0e992f	-0.13925622

fc1.bias f4 [84]
0	0x3da7ea79	0.08199019
1	0xbd8699a8	-0.06572276
2	0x3be07a0c	0.0068504866
3	0xbc840068	-0.016113475
4	0x3d5176c8	0.05113867
5	0x3e0a95b2	0.13533667
6	0x3dd7b604	0.105327636
7	0xbd975254	-0.0738875
8	0xbe1354ed	-0.14387865
9	0xbdabf152	-0.083956376
10	0x3c343e6c	0.011001211
11	0xbe2e73ba	-0.17036334
12	0x3d6b2407	0.057407405
13	0xbd96a82b	-0.07356294
14	0x3e115823	0.14193778
15	0x3d5b9f02	0.05361844
16	0x3da3a5bb	0.07990595
17	0xba34b458	-0.00068933284
18	0x3dd09656	0.10184924
19	0xbdf13079	-0.117768236
20	0x3d8a0cd9	0.06740732
21	0x3d9cf67e	0.07664202
22	0xbd6b728a	-0.05748228
23	0xbd819eeb	-0.06329139
24	0xbde714b8	-0.11283249
25	0xbd4904b5	-0.049076755
26	0x3e01a16c	0.12659234
27	0x3cbe423e	0.023224946
28	0x3d0e5109	0.03474525
29	0xbe466c69	-0.19377293
30	0xbdede376	-0.1161565
31	0xbd2a2298	-0.041536897
32	0x3e2b09ce	0.16702959
33	0x3dbea398	0.09308547
34	0xbda2101a	-0.079132274
35	0xbd847dcc	-0.06469306
36	0x3d544258	0.051821083
37	0x3d32698a	0.04355768
38	0xbded0c49	-0.11574609
39	0x3cf737e2	0.030178014
40	0xbdc03b15	-0.09386269
41	0xbe31cbaa	-0.17362848
42	0x3d322a27	0.04349723
43	0x3db97204	0.0905495
44	0xbe33a73e	-0.17544267
45	0xbe071533	-0.1319168
46	0xbe4741dc	-0.19458717
47	0x3e183ebb	0.1486768
48	0xbe0cfa47	-0.13767348
49	0xbd2f7f38	-0.042845935
50	0xbd9b25bd	-0.075755574
51	0x3daefa6a	0.085438564
52	0x3e01128d	0.12604733
53	0xbe2088bc	-0.1567716
54	0xbdb14683	-0.08656027
55	0xbd293311	-0.041308466
56	0xbd0bc015	-0.03411873
57	0x3d4e835d	0.050418247
58	0xbdf05ba0	-0.11736226
59	0xbe16a44c	-0.14711112
60	0xbc47be55	-0.012191375
61	0xbdac7a26	-0.084217355
62	0x3c2c191d	0.010504034
63	0xbd8444d3	-0.0645844
64	0xbde2e69d	-0.11079142
65	0x3d9c67fe	0.076370224
66	0xbe06b456	-0.1315473
67	0x3dc27c12	0.09496321
68	0xbe49ade3	-0.19695239
69	0xbe566c97	-0.20939861
70	0xbd45589f	-0.04818022
71	0x3d56aeb2	0.052412696
72	0xbc037ec5	-0.00802583
73	0xbc5d5b80	-0.013510585
74	0xbd85b99d	-0.065295435
75	0x3d795d1e	0.06087982
76	0xbe383bbd	-0.17991538
77	0xbe2634ba	-0.16231051
78	0xbe595e10	-0.21227288
79	0xbe102cfc	-0.1407966
80	0xbe0c7f81	-0.13720514
81	0x3dc18b54	0.09450403
82	0xbdce822c	-0.10083422
83	0x3c2cc375	0.010544647

fc2.weight f4 [36, 84]
0	0x3c432425	0.011910473
1	0xbe11a840	-0.14224339
2	0x3d9d9054	0.07693544
3	0x3c10a7e3	0.00882909
4	0xbc0dbdb0	-0.008651182
5	0x3e3725bc	0.17885488
6	0x3e7e5bc8	0.248397
7	0xbcd323fd	-0.025773996
8	0xbd665963	-0.05623759
9	0x3d515eb6	0.051115714
10	0xbd55f87f	-0.052238937
11	0x3ddd5ca1	0.10808683
12	0xbd03675f	-0.032081004
13	0xbd8ac8df	-0.06776594
14	0x3c456a02	0.0120492
15	0x3e016a29	0.12638153
16	0x3d8af5d5	0.0678517
17	0x3cabf09e	0.020988759
18	0xbde80180	-0.11328411
19	0xbd474006	-0.048645042
20	0xbbcf1b87	-0.00632042
21	0x3e20608d	0.15661831
22	0xbe5dbc02	-0.2165375
23	0xbbb6c6c2	-0.005577893
24	0x3c856c2f	0.016286938
25	0xbd8cfdb6	-0.06884329
26	0x3c89c43c	0.016817205
27	0x3d0b4415	0.034000475
28	0x3e16be93	0.14721136
29	0xbe86fea3	-0.26366147
30	0xbc92be8b	-0.017913124
31	0xbdeee6a4	-0.11665085
32	0x3e1607b7	0.1465138
33	0x3d92adad	0.07162032
34	0xbe586d0a	-0.21135345
35	0xbdb01997	-0.08598631
36	0x3d6a3086	0.05717518
37	0x3cf7d826	0.030254435
38	0xbd8c834f	-0.068609826
39	0x3e4f272d	0.20229788
40	0xbdd5b3f1	-0.10434712
41	0x3bac72e2	0.0052627185
42	0x3e2e92fe	0.1704826
43	0xbd040049	-0.032226834
44	0x3d78843c	0.060672984
45	0x3d7f01d5	0.062257607
46	0xbdab7034	-0.083710104
47	0x3d8a218f	0.06744682
48	0xbde464db	-0.11152049
49	0xbd265087	-0.04060414
50	0x3c99459c	0.01870995
51	0x3d9a057d	0.07520578
52	0x3dda8153	0.10669198
53	0xbd5a4a09	-0.05329326
54	0x3ca2fafa	0.019895066
55	0xbc55e7ac	-0.013055723
56	0x3c4cc7e6	0.012498831
57	0xbd6a8f8c	-0.057265803
58	0x3d2315b9	0.03981564
59	0xbc8215a3	-0.015879458
60	0xbd68e338	-0.056857318
61	0xbe1e10c7	-0.15436088
62	0x3de3a9f8	0.11116403
63	0x3d28af6b	0.041182917
64	0xbdd31eac	-0.103085846
65	0xbd7c9a23	-0.061670434
66	0x3c44430e	0.011978878
67	0xbbbcde39	-0.0057637957
68	0xbde27ad1	-0.110585816
69	0xbe0fed80	-0.14055443
70	0xbe226be0	-0.15861464
71	0x3dce883b	0.10084578
72	0x3d84addb	0.06478473
73	0xbe4acf34	-0.19805604
74	0xbe372c53	-0.17888002
75	0x3ce8d3a2	0.028421227
76	0xbddfedb4	-0.1093401
77	0xbe1a2c44	-0.15055948
78	0xbde251ba	-0.11050744
79	0x3daca30e	0.08429538
80	0x3d1f7b86	0.03893616
81	0xbcd56506	-0.026049148
82	0xbd704c9d	-0.058666814
83	0xbd428329	-0.047488365
84	0xbe8fd2b0	-0.2809043
85	0x3c464370	0.012101039
86	0x3dcd29f5	0.10017768
87	0xbe06d6b9	-0.13167848
88	0x3e02ad55	0.12761433
89	0x3df1e958	0.11812085
90	0x3d553de7	0.052060988
91	0x3dfe847f	0.124276154
92	0xbbebf09c	-0.0072003137
93	0xbd7dded6	-0.06198009
94	0xbdf4c419	-0.11951465
95	0xbd072919	-0.03299818
96	0xbd52a107	-0.0514231
97	0xbd87c770	-0.066298366
98	0xb98b1620	-0.0002652863
99	0xbe04a950	-0.12955213
100	0x3cbd7b96	0.02313022
101	0xbd7493c0	-0.059711218
102	0xbe699388	-0.22810185
103	0x3d717d25	0.058957238
104	0xbcec4dfe	-0.028845783
105	0xbc80b19c	-0.01570969
106	0x3dcd8483	0.1003504
107	0x3cd90473	0.02649138
108	0x3d6cc3da	0.057803966
109	0x3d89dba9	0.0673135
110	0xbd023a3e	-0.031793825
111	0xbdb83086	-0.0899363
112	0x3cf5e399	0.030015754
113	0xbb4fd150	-0.0031710453
114	0xbd19a77d	-0.037513245
115	0xbc8706f0	-0.0164828
116	0x3dc80430	0.09766424
117	0x3e02ff11	0.12792613
118	0xbd90c107	-0.07068067
119	0x3e15b10e	0.14618322
120	0x3da84891	0.08216966
121	0xbe10cdcc	-0.14141005
122	0x3c0cd3e9	0.008595445
123	0x3d024662	0.031805404
124	0x3deab41c	0.114601344
125	0x3e55c1a9	0.20874657
126	0x3d881435	0.06644479
127	0xbc8343d5	-0.016023556
128	0x3e4e957a	0.20174208
129	0x3de26ae1	0.11055542
130	0x3e9338e2	0.28754336
131	0xbe491050	-0.19635129
132	0xbae3611b	-0.0017347665
133	0xbda507bf	-0.08058118
134	0x3de83b0e	0.11339389
135	0xbd10377d	-0.035209168
136	0x3e000a12	0.12503842
137	0x3e73fc54	0.23826724
138	0x3e306bee	0.17228672
139	0xbb8f8be4	-0.00438069
140	0xbe5d1aac	-0.21592206
141	0xbe45eee8	-0.19329417
142	0x3de37486	0.111062095
143	0x3e6ae1f0	0.22937751
144	0x3c71a12c	0.014747899
145	0x3e06eced	0.13176318
146	0x3e1a0d6c	0.15044183
147	0xbbaa2f82	-0.0051936517
148	0x3de904df	0.11377882
149	0xbb34941c	-0.00275541
150	0x3d49ffc8	0.049316198
151	0xbcda2a04	-0.026631363
152	0x3e3d607d	0.18493839
153	0x3d0fb5c7	0.035085466
154	0x3d51b467	0.051197436
155	0xbcd3e12f	-0.025864212
156	0xbe2c687c	-0.16836733
157	0x3e337071	0.17523362
158	0x3d01af6a	0.03166143
159	0x3e1d1d4b	0.15343206
160	0x3ca1509d	0.01969176
161	0xbb727981	-0.0036998692
162	0x3e56d13b	0.20978253
163	0x3e3941ae	0.18091461
164	0x3cd58eaa	0.026069004
165	0x3dcd48a9	0.100236244
166	0xbd8f610f	-0.07000934
167	0x3d37e264	0.044893637
168	0xbda9c163	-0.08288839
169	0x3e242ce9	0.16032757
170	0xbd802d9e	-0.06258701
171	0x3dbc0586	0.09180741
172	0xbde2dfaf	-0.110778205
173	0xbd90fa72	-0.07079019
174	0xbd8c00a0	-0.06836057
175	0xbc9ed29b	-0.019387534
176	0xbe2ec736	-0.1706818
177	0xbdfa4603	-0.12220385
178	0xbcb9d0d9	-0.022682594
179	0x3d34fb7f	0.044185158
180	0x3ca40392	0.020021234
181	0x3dbfb42f	0.09360539
182	0xbe2d5a7f	-0.16929053
183	0x3d8e0c70	0.06935966
184	0xbe0fd01d	-0.14044233
185	0xbe8fe358	-0.28103137
186	0x3d70fa37	0.058832373
187	0x3df1cbb3	0.11806431
188	0xbaa75349	-0.001276591
189	0xbe8ee6cd	-0.27910462
190	0x3d63f50f	0.055653628
191	0x3e217ff7	0.15771471
192	0xbc8d007d	-0.017212147
193	0xbc7228c7	-0.01478023
194	0xbe32d4b6	-0.17463955
195	0xbdfc9520	-0.12333131
196	0x3aa00bfa	0.00122106
197	0x3ccd59ab	0.025067171
198	0x3da2c093	0.07946887
199	0x3e4840b0	0.19555926
200	0xbe67c163	-0.22632365
201	0xbde80437	-0.11328929
202	0x3e4ad205	0.19806679
203	0xbc2835e3	-0.010266754
204	0xbe763680	-0.24044228
205	0x3b0e53da	0.002171746
206	0x3e2b1900	0.16708755
207	0xbe7dc2a8	-0.24781287
208	0x3d0074b2	0.03136129
209	0x3deca414	0.11554733
210	0xbe0708fd	-0.13187023
211	0xbd5ed9c3	-0.054406893
212	0xbd5d668e	-0.054052882
213	0xbe0ae761	-0.13564827
214	0x3dc5a351	0.09650291
215	0xbd93e286	-0.0722094
216	0x3e1cfcdc	0.15330833
217	0xbc85b7c7	-0.016322983
218	0x3dfedff7	0.12445062
219	0xbd95f899	-0.07322807
220	0xbe5634bf	-0.20918559
221	0x3d9f495f	0.07777666
222	0xbe2d7c6b	-0.16941993
223	0xbd105ae3	-0.035242926
224	0xbe3f6f29	-0.18694748
225	0xbdc22be7	-0.0948103
226	0x3d735508	0.059407264
227	0x3d87ff97	0.06640547
228	0xbe4525d7	-0.19252716
229	0x3db1f9ef	0.08690249
230	0xbdbee251	-0.0932051
231	0xbd82f136	-0.063936636
232	0x3dc8549f	0.09781765
233	0xba8a3245	-0.0010543546
234	0x3d3e1077	0.04640242
235	0xbdf1b4f9	-0.11802096
236	0xbd4539a2	-0.048150666
237	0x3d82eb18	0.06392497
238	0xbd0abf98	-0.033874124
239	0xbe5dcb06	-0.21659479
240	0xbc3d9dc6	-0.011573261
241	0x3e33da74	0.17563802
242	0x3d8a98f8	0.06767458
243	0xbd8a0be4	-0.06740549
244	0x3cf68bbd	0.03009593
245	0x3dc66728	0.09687644
246	0xbdb31bca	-0.08745535
247	0x3d6ffd24	0.058591023
248	0xbbe1fa8e	-0.0068963235
249	0xbce9eb15	-0.028554479
250	0x3db203cd	0.08692131
251	0xbe494832	-0.19656447
252	0xbe1d8523	-0.15382819
253	0x3da44bdc	0.080222815
254	0x3d384018	0.044983
255	0xbd0f91db	-0.035051208

fc2.bias f4 [36]
0	0xbc92cf3f	-0.017921088
1	0xbe43175d	-0.19051881
2	0xbdd960e7	-0.10614186
3	0xbc1bcec2	-0.009509744
4	0xbdec2dbc	-0.11532161
5	0x3d86bd71	0.06579102
6	0xbd415567	-0.047200587
7	0x3d0ea865	0.034828562
8	0xbe7131c5	-0.23554142
9	0xbde45f17	-0.111509494
10	0x3d9adddf	0.0756185
11	0x3bcf15f3	0.006319755
12	0xbde1b006	-0.11019902
13	0xbdc6391d	-0.09678862
14	0xbe053b69	-0.13010944
15	0x3e17c73e	0.14822099
16	0xbd4684f9	-0.048466656
17	0x3db42554	0.08796182
18	0x3df22d6d	0.118250705
19	0x3e8624f1	0.2620006
20	0x3e6cbb93	0.23118429
21	0x3dfae236	0.122501776
22	0x3d4b6665	0.049658198
23	0xbdf0b351	-0.11752952
24	0xbe727870	-0.23678756
25	0xbe174ac3	-0.14774613
26	0x3d66469d	0.056219686
27	0x3cb530e6	0.022118043
28	0xbdd42ca7	-0.10360079
29	0xbdacf25b	-0.08444663
30	0xbd17cbc5	-0.037059564
31	0x3d9e0820	0.077163935
32	0xbd8319ae	-0.064013824
33	0x3dc6a716	0.09699838
34	0xbe83e766	-0.2576248
35	0x3ddef987	0.10887437

fc3.weight f4 [3, 36]
0	0x3dc8b89c	0.098008364
1	0x3d000d46	0.03126266
2	0xbe55b498	-0.20869672
3	0xbe8b45bd	-0.27201644
4	0xbdb9e21a	-0.090763286
5	0xbdeae9b7	-0.11470359
6	0xbdb2d756	-0.08732478
7	0x3e27967e	0.16366002
8	0xbd666038	-0.056244105
9	0xbe39b56c	-0.18135613
10	0x3c7ea8f8	0.015543215
11	0x3dd79abd	0.10527561
12	0xbe31eecd	-0.17376252
13	0xbe056723	-0.13027625
14	0x3e02461a	0.12722054
15	0xbd93e06c	-0.072205395
16	0x3d75a3c5	0.059970636
17	0x3e5bf286	0.21479234
18	0x3da22403	0.07917025
19	0x3d344835	0.044014174
20	0x3cce87f7	0.025211317
21	0xbc3d0049	-0.0115357125
22	0x3de95b2c	0.11394343
23	0xbe0c0879	-0.13675107
24	0xbe1ab8be	-0.15109536
25	0xbe2f7782	-0.17135432
26	0x3de71276	0.11282818
27	0xbe142d07	-0.14470302
28	0xbe086764	-0.1332069
29	0x3e25e3f7	0.16200243
30	0x3e313e76	0.17308983
31	0xbbcdb8c2	-0.0062781284
32	0x3b794cf9	0.0038040264
33	0x3de43a1a	0.111438945
34	0xbcd63f67	-0.02615328
35	0x3dcf11fd	0.10110853
36	0xbdaa6b74	-0.08321276
37	0xbc32acf8	-0.010905497
38	0x3c89d10f	0.01682332
39	0xbd3eaa1d	-0.04654895
40	0x3d065821	0.03279889
41	0x3defc249	0.11706979
42	0xbd0e627a	-0.034761883
43	0xbda4a3f6	-0.080390856
44	0xbdb41c7c	-0.087944955
45	0xbe36d005	-0.1785279
46	0x3d00074d	0.031256963
47	0xbddd99f0	-0.10820377
48	0x3de1fda5	0.11034707
49	0xbdeb5c79	-0.11492247
50	0xbdc99097	-0.098420314
51	0x3d9e1ebc	0.07720706
52	0xbc8fe0ba	-0.017563213
53	0xbdb4b5da	-0.08823748
54	0x3db20d25	0.08693913
55	0x3e08f501	0.13374712
56	0xbc2df514	-0.010617513
57	0x3dbdff61	0.09277225
58	0xbe08035f	-0.13282536
59	0xbdef9591	-0.116984494
60	0x3c1f37f0	0.009717926
61	0xbd813d7f	-0.063105576
62	0xbd502e9b	-0.050825696
63	0x3e3e721e	0.1859822
64	0x3de60bf0	0.11232746
65	0xbb699d81	-0.0035646858
66	0xbd851689	-0.06498439
67	0xbd071d25	-0.03298678
68	0x3e17b5a2	0.14815381
69	0x3db1c643	0.086803935
70	0xbd4e16d3	-0.050314736
71	0x3de9db39	0.114187665
72	0xbd90e492	-0.07074846
73	0x3e8de9f4	0.27717555
74	0x3d0d4fff	0.03450012
75	0x3deac388	0.11463076
76	0xbd63ba4f	-0.0555976
77	0xbe24c85e	-0.16092059
78	0xbdecc0b9	-0.115601964
79	0xbe321ad1	-0.17393042
80	0x3e7530eb	0.23944442
81	0x3cc6a35f	0.024247823
82	0xbe958a58	-0.2920711
83	0xbdb309e3	-0.0874212
84	0x3dc8bc70	0.098015666
85	0x3e271aa7	0.16318761
86	0x3d460795	0.048347075
87	0xbe0f498f	-0.13992904
88	0x3e0fffa6	0.14062366
89	0x3de817e7	0.11332684
90	0xbea596a4	-0.32341492
91	0xbe5d0489	-0.21583761
92	0xbeb6adf7	-0.356796
93	0xbe6adaca	-0.22935024
94	0x3d099953	0.033593487
95	0x3da42a42	0.080158725
96	0xbda5b6f4	-0.08091536
97	0x3d7ae6c4	0.06125523
98	0xbe28cfdb	-0.1648554
99	0x3de932a9	0.11386616
100	0x3e2b5f0e	0.16735479
101	0xbbbd8e70	-0.005784802
102	0xbddd1c62	-0.10796429
103	0xbe12b987	-0.14328586
104	0xbdc9a223	-0.09845378
105	0xbe758481	-0.23976327
106	0x3c144533	0.0090497015
107	0xbe9f29d6	-0.31086606

fc3.bias f4 [3]
0	0x3c86cd33	0.016455268
1	0xbcea4158	-0.028595611
2	0xbeae6e10	-0.34068346

conv1_bn.weight f4 [6]
0	0x3f8ecbd4	1.1155953
1	0x3f52a15b	0.8227746
2	0x3f864ab8	1.0491552
3	0x3f836f64	1.0268369
4	0x3f816763	1.0109676
5	0x3f35d368	0.71025705

conv1_bn.bias f4 [6]
0	0xbea7e3cb	-0.3279098
1	0xbd676a7f	-0.056498047
2	0xbea13ca9	-0.31491593
3	0xbdeebfe9	-0.11657698
4	0xbd1e2896	-0.038612925
5	0xbd3da513	-0.046300005

conv1_bn.running_mean f4 [6]
0	0xbeb2598b	-0.3483394
1	0x3d807546	0.06272368
2	0xbecf3d6c	-0.4047655
3	0xbee315c0	-0.4435253
4	0x3e9282fe	0.28615564
5	0x3f8e7722	1.1130106

conv1_bn.running_var f4 [6]
0	0x3fcaeaa4	1.5852857
1	0x3e661c3d	0.2247171
2	0x3e436052	0.19079712
3	0x3ec2e2bd	0.38063613
4	0x3ebe1a4a	0.37129432
5	0x4059509b	3.3955448

conv2_bn.weight f4 [10]
0	0x3fa1e1e6	1.2647064
1	0x3f83846a	1.0274785
2	0x3f998daa	1.1996357
3	0x3f926e95	1.1439997
4	0x3f45db00	0.7728729
5	0x3f67a037	0.90478843
6	0x3f4571ae	0.77126586
7	0x3fb8e860	1.4445915
8	0x3f56018b	0.83596104
9	0x3f90e407	1.1319588

conv2_bn.bias f4 [10]
0	0xbd3b7cbb	-0.04577325
1	0xbda162fa	-0.078802064
2	0xbce0b059	-0.02742784
3	0xbddf2268	-0.10895234
4	0xbe1bd909	-0.15219511
5	0xbe0e48a6	-0.138949
6	0xbde27e1a	-0.11059208
7	0xbe1e195a	-0.15439358
8	0xbda32ac1	-0.07967139
9	0xbdf24182	-0.11828901

conv2_bn.running_mean f4 [10]
0	0x3df5ba2b	0.11998399
1	0xbdc8b93f	-0.09800958
2	0x3ebb9ee7	0.3664467
3	0xbe20807d	-0.15674014
4	0xbe5aa63e	-0.21352479
5	0x3dba1cc9	0.090875216
6	0xbe71b85c	-0.23605484
7	0xbd1e2c39	-0.038616393
8	0xbe4411af	-0.19147371
9	0x3e0530cc	0.13006896

conv2_bn.running_var f4 [10]
0	0x3e27285e	0.16323993
1	0x3e058222	0.13037923
2	0x3df5c5fc	0.12000653
3	0x3eb84a0f	0.35994002
4	0x3ecfba14	0.40571654
5	0x3e92211e	0.2854089
6	0x3ef3585c	0.4752835
7	0x3e946aa0	0.28987598
8	0x3e536740	0.20644855
9	0x3dc257a5	0.09489373
